qmnist/qmnist_mobile.pt (torch, 448243 bytes, 6 tensors)

weight f4 [128, 784]
000000 8b 7b aa bc 41 94 db 3c 75 73 bd 3c 3d e3 0f bd
       -0.020810863 0.026804091 0.023126343 -0.03512882
000010 7b b0 17 bd 65 9d 3e bc 52 e7 1c 3c 9e c6 ee bb
       -0.03703354 -0.0116342055 0.009576635 -0.0072868606
000020 bf 49 49 bc df 7b 22 bd 79 b6 56 bc fd ef f9 3c
       -0.012285649 -0.039668914 -0.013105028 0.030509943
000030 91 02 c4 bc 01 43 82 bc 1c 43 f9 3b a3 6c 97 bc
       -0.023927005 -0.01590109 0.007606877 -0.01848442
000040 91 c6 ca 3c 33 dc 18 bd 8f fc ed 3c cd ef 1c bd
       0.024752887 -0.037319373 0.029051093 -0.03831463
000050 37 a2 96 bc 16 84 14 bc 26 d9 a5 bb da 91 d3 3c
       -0.018387897 -0.009064695 -0.0050612865 0.025826383
000060 88 bb c3 3a b6 14 99 3b 2d 86 ce 3c 0c c1 15 3b
       0.0014933208 0.0046716584 0.025210464 0.002285066
000070 fe 8a 30 3b a6 44 b3 3b ab e3 59 bc b5 27 ce 3c
       0.0026938315 0.00547083 -0.013298909 0.025165418
000080 58 13 bf 39 a5 1e 49 3c f6 de 88 3c 36 c0 ee bc
       0.0003644477 0.012275373 0.016707879 -0.029144388
000090 da 4c ae bc f1 16 51 3a 1f 17 b8 3b 16 fd f5 bc
       -0.02127688 0.0007976136 0.0056179906 -0.030027907
0000a0 73 93 3d bb d5 b7 39 bb 3c 67 11 ba 7f 28 1c bc
       -0.0028926998 -0.0028338332 -0.0005546694 -0.009531139
0000b0 cc 3c f3 3c c2 a1 e8 bc 61 cf 07 bd 7a 84 29 bc
       0.029692076 -0.028397445 -0.033156756 -0.010346526
0000c0 a1 6b da 3b d8 3e f2 3c ab 27 06 bd 23 b6 f7 3c
       0.0066656624 0.029570982 -0.032752674 0.030238217
0000d0 aa 19 5a bb 2b 8a 11 bd ad 42 d4 bc 51 6e 87 3c
       -0.0033279457 -0.035532158 -0.0259107 0.016532095
0000e0 f3 2c 47 3c 95 d4 bf 3c 2f 9a 49 3c 8a c7 9a 3c
       0.012156713 0.023416797 0.012304827 0.018893976
0000f0 e5 58 b0 3c 0c c6 cd 3c c1 b0 ff bc 17 86 c7 bc
       0.021526763 0.02511885 -0.031212213 -0.024355931
000100 c4 f6 e2 3c 44 91 af bc fa bf 94 bb 68 e2 c4 3c
       0.027705558 -0.021431573 -0.004539487 0.02403374
000110 c0 58 48 3d 0a 6d 34 3d d4 de 20 3c 0e 1b 44 3d
       0.048912764 0.0440493 0.009818751 0.047877364
000120 d1 0f 9f 3c 29 74 5b 3c 0a 56 36 bc fd 0a bf 3c
       0.019416722 0.013394394 -0.011128912 0.02332067
000130 1d 65 fc 3c 55 1d 8b 3b c7 12 8a 3b 3b a9 88 3c
       0.030809933 0.00424544 0.004213664 0.016682258
000140 5a 36 99 bb af b4 e9 bc 07 f7 a8 3c f1 12 07 bc
       -0.0046756687 -0.02852854 0.020625604 -0.008244262
000150 9f 6f 18 bc b7 2a 2b 3c 68 8a 02 bc d2 ea f3 3c
       -0.009303956 0.010447196 -0.007967569 0.029775057
000160 a0 dd a6 bc d0 8d b6 3c d5 7b e5 bb 98 f8 a0 bc
       -0.02036935 0.022284418 -0.0070032873 -0.019649789
000170 5e 92 0f bc dd 34 25 3c 70 0c f7 3c 93 ee e8 3c
       -0.008762924 0.010083404 0.030157298 0.028434074
000180 a7 29 f7 3a 4c 0f 56 3d d4 8f 2d 3d ad d3 84 3c
       0.0018857018 0.052260682 0.042373493 0.016214216
000190 56 a4 77 3d 1a a7 03 3b 8a 38 5c 3d fe 6a 83 3d
       0.060459457 0.0020088614 0.053764857 0.064168915
0001a0 27 05 cf 3c 3b 0b 86 3d 41 b3 34 3d 56 2e 29 3d
       0.025271012 0.06545111 0.044116262 0.041303955
0001b0 88 c0 cf bb 36 bd 85 bc fb 2f 1c 3b fa 12 a3 3b
       -0.00634009 -0.016325574 0.002383231 0.0049766274
0001c0 b5 21 46 3c 28 bf b6 b9 ef f3 94 bc 22 7f ac 3c
       0.012092997 -0.00034856168 -0.018182723 0.021056715
0001d0 eb 5c 7b 3c 8f 91 0f 3c 5e bf 9d bb 7e e0 6e 3c
       0.015341978 0.008762731 -0.0048140725 0.01457989
0001e0 c4 c4 d5 3b 64 8a 82 bb b5 d8 86 3b 5c e5 2f bc
       0.0065237004 -0.0039837826 0.004115189 -0.010735836
0001f0 67 09 e0 3c aa 87 7a 3d 8d 9d c0 3d a7 4a c9 3d
       0.027348233 0.061164536 0.094050504 0.09828692
000200 9b 57 da 3d 0c c2 01 3d bf d3 38 3d ac 39 39 3d
       0.10661241 0.0316792 0.04512381 0.045221016
000210 62 d2 3c 3d 85 76 b8 3c e2 b4 95 3c 5d e1 06 bc
       0.046099074 0.022517452 0.018274728 -0.008232442
000220 71 e2 7c 3c da d2 23 bc 6b 59 d0 3c f7 b7 bb 3b
       0.015434847 -0.009999001 0.025433263 0.0057287174
000230 8c 97 8d 3b 7f 4d 9b bc c1 00 93 3c 76 c6 a3 bc
       0.0043210443 -0.018957851 0.017944695 -0.019992094
000240 1a 2a af 3c 8b f1 96 39 73 ad 0f bd e7 e8 9d 3c
       0.02138238 0.00028790193 -0.035077523 0.019276096
000250 2d ef 47 bc f0 43 80 bc f5 01 0a bd fe e3 d3 bd
       -0.01220302 -0.015657395 -0.033693273 -0.103462204
000260 ca 7d 8d bd 9e a6 56 bd e3 55 0b 3d 54 ba b3 3c
       -0.06908758 -0.052404992 0.034017455 0.021939434
000270 37 3f 17 3d a0 05 9f 3d b7 18 97 3d 06 e7 9f 3d
       0.03692552 0.07764745 0.07377761 0.07807736
000280 bd 5b e7 3d cc aa 97 3d 8c 83 85 3c 3a b7 5b 3c
       0.112967946 0.07405624 0.016298078 0.013410384
000290 25 e8 86 3b fc a3 01 3d e0 ab 60 3b e7 3f 02 bd
       0.0041170293 0.03165053 0.0034282133 -0.031799223
0002a0 44 b0 de 3b 69 f0 d0 3b d5 7f b3 3c 28 f3 43 bd
       0.006795915 0.0063763154 0.021911541 -0.047839314
0002b0 6c fe f9 bb 2b 82 32 bd f8 7d 2b bb 3a bc 18 bd
       -0.0076292064 -0.04358117 -0.0026167613 -0.03728888
0002c0 04 31 0c ba f9 7f 66 bd b2 38 07 be 12 8c 34 be
       -0.000534788 -0.056274388 -0.13205221 -0.17631558
0002d0 20 18 cb bd 34 8c 24 be af a8 2c be 27 09 fe bd
       -0.09916711 -0.16069108 -0.16861223 -0.124040894
0002e0 7c 0e f3 bd ee 9c 65 bd c3 8c b7 bd c6 71 f4 3b
       -0.11867997 -0.056057863 -0.08962395 0.007459852
0002f0 cb 7f f4 3c 2e c5 85 bc 2e e7 5a 3b 57 34 0b 3d
       0.029846093 -0.016329374 0.0033401954 0.033985462
000300 ba ed 6d 3d 1f 17 e1 3c 54 7b 8a 3c fe e2 8e bb
       0.05808804 0.027476845 0.01690451 -0.0043605557
000310 b7 be 06 bd cd 5d 00 bc 9e 81 26 bd 3e 9d 5e 3c
       -0.032896724 -0.007834864 -0.040650956 0.013587294
000320 4c e6 62 bc 08 f5 ff bc 57 5c 44 bd 54 10 ef bc
       -0.013848852 -0.03124477 -0.047939625 -0.02918259
000330 92 d1 de 3b 80 3b d5 bd 3c e0 0c be b8 a1 8f bd
       0.006799885 -0.10411739 -0.13757414 -0.07013267
000340 4c f9 28 be f8 ac 16 be 8a e3 11 be 84 ab 0d be
       -0.16501349 -0.1471442 -0.14246956 -0.1383496
000350 d3 bc 19 be 7e d2 c7 bd 13 93 a6 bd b9 c4 a4 bd
       -0.15013437 -0.09756945 -0.08133521 -0.08045334
000360 c3 40 89 bd 1c d5 e4 3c 7f 63 99 3c bc 29 c9 3c
       -0.067018054 0.02793365 0.018724201 0.024556033
000370 49 ee 82 3c 7c 12 86 3d b9 3f 82 bc 68 53 77 3c
       0.015982764 0.06546494 -0.015899526 0.015095569
000380 f0 5a 07 bd e5 9e 19 3c e6 98 95 bc b4 ee 6d 3c
       -0.03304571 0.009376262 -0.018261384 0.014522243
000390 f7 b5 65 3a 86 f9 10 bd 18 66 1b bd a4 bb e2 bb
       0.00087627716 -0.035394214 -0.03793916 -0.006919341
0003a0 f7 74 35 bd ac 68 03 bb d6 04 6d bd 18 06 b7 bd
       -0.044301 -0.0020051403 -0.05786594 -0.08936709
0003b0 52 c7 82 bd 94 12 23 bd 08 16 de bd 9b 83 0c be
       -0.063856736 -0.03981264 -0.10844046 -0.13722079
0003c0 50 d5 72 bd a0 89 d4 bc ca b8 81 bd 3f 44 e4 3c
       -0.059285462 -0.025944531 -0.06334074 0.027864574
0003d0 70 d4 1e 3d 97 fd d9 3c 28 ca dc bb 66 d9 13 bd
       0.038776815 0.026610179 -0.006737966 -0.036096
0003e0 ec f6 1e 3d 50 98 df 3c ef ca 0c bc 9b b1 d2 3c
       0.0388097 0.027294308 -0.008593305 0.025719455
0003f0 8d ad 6e 3c c8 5c 3c bc 48 e9 3a ba e0 06 55 bd
       0.014567745 -0.01149673 -0.00071300985 -0.05200851

bias f4 [128]
000000 3a 05 1f 3d e4 0b 4e 3d 54 15 09 bc dd 28 c6 3b
       0.038823344 0.05030431 -0.008366901 0.0060473518
000010 f5 d5 8f bc 2a 0c b0 3b d5 88 bf 3c 62 e6 00 bd
       -0.017558077 0.005372544 0.023380676 -0.03146971
000020 3e 2a 91 bb 40 f2 e8 b6 94 ce 00 bd bb 6e 0c bd
       -0.0044300845 -6.9423404e-06 -0.03144701 -0.03428529
000030 46 d3 00 bd 67 62 de 3c f5 36 ae 3c 72 c4 90 b7
       -0.031451486 0.027146531 0.02126644 -1.7257615e-05
000040 eb 03 b5 bc 50 bb 2f bd 8c 7c 85 bc e0 67 cf bc
       -0.022096595 -0.042903244 -0.01629474 -0.025318086
000050 d5 bc d7 bb 5a 85 22 bd cf e6 b5 bc 4d 0d cc 3c
       -0.00658379 -0.039677955 -0.022204785 0.024908686
000060 6e 28 44 bd 31 15 87 bc 76 eb f3 bb 1e 86 7b bc
       -0.04789012 -0.016489597 -0.0074438406 -0.0153518
000070 e8 a6 98 3c e3 46 9c 3a 56 32 83 bc f2 00 f7 bc
       0.018634275 0.0011922981 -0.016015213 -0.030151818
000080 fc 43 26 b8 04 c1 31 bc 3f 43 05 3b 41 f0 e7 3b
       -3.96408e-05 -0.010849241 0.0020334271 0.007078201
000090 58 20 c4 bb 5d 86 35 bd 9f 18 4a 3b 0a a0 d3 bc
       -0.005985301 -0.044317592 0.003083743 -0.025833149
0000a0 f0 c7 bf 3a de 5a 40 bd 35 31 f1 bc f5 17 a8 3c
       0.001463173 -0.046961658 -0.029442409 0.020519236
0000b0 00 95 a5 bc e1 a0 b9 3b e4 03 2e bc 47 6c 15 3b
       -0.02021265 0.00566493 -0.010621045 0.0022800134
0000c0 29 c8 08 3d 26 5f 90 bc 02 cc c1 3c fc 99 05 bd
       0.033394013 -0.017623495 0.023656849 -0.032617554
0000d0 e6 be 7a 3c 19 3e be 3c fb 37 db 3c 0d d4 b9 3c
       0.015304303 0.02322297 0.026760092 0.022684122
0000e0 70 00 f2 bc 2d 11 17 bc 53 28 5f 3c c6 03 8d bb
       -0.029541224 -0.009220404 0.013620454 -0.0043034283
0000f0 90 30 34 3b db ce ad 3c 92 cc c4 bc 38 49 6e 3c
       0.0027494766 0.0212168 -0.024023328 0.014543824
000100 e3 2d 26 bd 84 04 6d 3c 44 26 a0 3c 3b 68 0f bc
       -0.040571105 0.014466409 0.019549496 -0.008752878
000110 6d 16 b6 3c 47 c0 f7 3b 99 dc c5 3c d8 8d 08 bc
       0.02222749 0.007560763 0.02415304 -0.008334599
000120 14 5e 70 3c 33 49 be 3c 32 1c 7d 3c 4a 06 8b 3a
       0.0146708675 0.023228263 0.015448617 0.0010606733
000130 d0 eb c0 3b 8e fe b0 bb d5 0c c0 bb 77 b7 85 3c
       0.005887486 -0.005401439 -0.0058609047 0.016322834
000140 81 0f a7 3c 4a 75 ea b9 91 8d 3a 3c 30 c6 0c bd
       0.020393135 -0.00044719345 0.011386291 -0.034368694
000150 d8 45 33 bc dd 03 bc 3b 48 73 06 bd 14 2b a2 3c
       -0.010941945 0.005737765 -0.032824785 0.019795932
000160 95 66 25 bd f1 1a a5 bc b3 6a 52 bb d0 28 d4 bb
       -0.040381033 -0.020154448 -0.0032107055 -0.006474592
000170 2f 18 5e bc 62 3f a0 3c 87 d1 fc 3c 2e f7 c2 bc
       -0.0135555705 0.019561473 0.03086163 -0.023799505
000180 f6 f8 d8 3c 4c 37 04 bc 51 bf a8 3c 76 e5 cd bb
       0.026485901 -0.008069824 0.02059904 -0.0062834574
000190 88 1a 81 ba 2a 37 ed bc 2f c2 84 bc 73 4a 24 bd
       -0.0009849826 -0.028956968 -0.016205875 -0.040110063
0001a0 1e e6 f0 3c e5 fa 83 bc 09 16 a9 bc 56 4c dd 3b
       0.029406603 -0.016110847 -0.02064039 0.0067534847
0001b0 17 d4 02 bd d0 e9 22 bd a5 71 c8 3c 61 d5 a5 3c
       -0.031940546 -0.039773762 0.024468252 0.020243349
0001c0 1c 8d 60 bb ec 73 e4 39 ae 30 00 bc 9b 11 bf 3c
       -0.0034263795 0.00043573917 -0.007824106 0.023323825
0001d0 fa a8 0b bd 5a cb 22 bd 14 2c c3 3b c8 5c e4 bc
       -0.034096695 -0.039744712 0.0059561823 -0.027876273
0001e0 8b 74 13 bd 9a 3d 17 bd 9b 03 0c bd d7 3c 61 3c
       -0.035999816 -0.036923982 -0.034183126 0.0137474155
0001f0 ad cd 19 bb 3d 60 11 bd 12 58 b5 3c cb 3a 82 bb
       -0.002346854 -0.03549217 0.022136722 -0.003974294

weight f4 [64, 128]
000000 cc 16 96 bc cb d4 33 bd 18 0f 5a be d9 d9 0b 3e
       -0.018321417 -0.043904107 -0.2129482 0.13657321
000010 47 24 d8 bd 4f 01 3d 3d 00 04 47 3c 7d fb 7a bd
       -0.10553794 0.046143826 0.01214695 -0.061274994
000020 f4 54 80 bd d3 77 47 3e 29 96 84 3d d3 04 1c be
       -0.062662035 0.19479303 0.06473953 -0.15236215
000030 4d a5 0b 3e 50 ae 10 bd 6e da 02 3e 9e 57 82 bd
       0.13637276 -0.035322487 0.12778637 -0.06364368
000040 38 99 42 bd 30 d5 1a 3e b4 cb 74 bd 0a 07 5b 3d
       -0.047509402 0.15120387 -0.05976458 0.05347351
000050 60 d0 be bc 61 de ba 3d b2 ca 88 bd 50 b9 97 bc
       -0.02329272 0.09124447 -0.06679286 -0.018520981
000060 d2 5e 75 3e 08 01 45 bd a2 3d 5a 3e 98 3b e4 bd
       0.23961952 -0.048096687 0.21312574 -0.11144179
000070 18 d4 ff 3d dc 1b 19 3c 2c 70 0d 3d da 2c 7d bd
       0.124916255 0.009345021 0.034530804 -0.061810352
000080 94 6a 9a bd 47 f7 b7 bc 97 2d fc 3b 5d 31 54 3d
       -0.075398594 -0.022456778 0.0076958644 0.05180489
000090 f5 c8 9d bc 51 aa 2e 3e 17 d2 25 3d d8 34 45 3d
       -0.019260863 0.17057158 0.04048356 0.0481461
0000a0 e7 a7 83 3d 98 fd 0c be 16 dc f7 bd fb 4f 57 bd
       0.06428509 -0.13768613 -0.12102525 -0.05256651
0000b0 d7 18 d0 bd ec 4e 50 bd af a8 b4 bd 73 44 28 be
       -0.10160988 -0.050856516 -0.08821236 -0.16432361
0000c0 cf c9 45 3c 15 4f d7 bc 8b 53 1f 3d f7 1e 6c 3c
       0.012072041 -0.026282826 0.038898032 0.0144116795
0000d0 04 35 7c bd 2a f1 47 bd 50 8f 4b be 14 58 ac 3d
       -0.061573997 -0.048813976 -0.19878888 0.08415237
0000e0 fa 9e 7d bd 59 c0 83 bd 43 cd 98 bb c3 a4 50 ba
       -0.06191919 -0.06433172 -0.004663141 -0.0007959122
0000f0 b1 e6 a0 bd 88 fa 04 be 41 42 b6 3d bb 9d 47 3d
       -0.07856501 -0.12986195 0.08899356 0.048734408
000100 30 e1 0d 3e 4e c9 05 3d e8 10 6a be 20 45 5b 3b
       0.13855433 0.032662682 -0.22858012 0.003345795
000110 69 e4 37 be 18 6d 96 3d 6d a7 ab bd f9 6c 83 bc
       -0.17958225 0.07345027 -0.08381543 -0.016043173
000120 c0 2f cc 3b a1 48 82 3c 14 37 01 3e 74 31 d6 bc
       0.006231278 0.015903773 0.12618667 -0.026146628
000130 f0 db a1 bb 3f 99 a7 3d b0 eb 96 bb 2e 2c 90 bd
       -0.0049395487 0.08183526 -0.004605733 -0.070396766
000140 a7 a7 da 3d 0e 00 28 3e fa 67 d3 bd 3d a1 1e 3d
       0.106765084 0.16406271 -0.10322566 0.038727988
000150 63 09 d0 bd 1c fe 0a ba c7 57 26 be 0c 41 ba 3d
       -0.101580404 -0.00053021475 -0.16244422 0.09094438
000160 ab 6d 37 3d 4d 4e 31 3b 48 cb 3c bd 35 d9 58 bc
       0.044782322 0.0027054728 -0.0460923 -0.01323538
000170 a6 97 71 3d 48 bb d7 bb 88 f1 20 be 9e 4e 3e bd
       0.058982514 -0.006583605 -0.15717137 -0.046461694
000180 69 a4 fb bd d1 8c a5 bd 65 75 38 bd c9 37 ce bc
       -0.12287218 -0.08083499 -0.04503383 -0.025173085
000190 a5 96 bc 3c 92 a8 2a 3c 02 a7 20 be 45 8d 36 3d
       0.023021052 0.010416167 -0.15688708 0.04456832
0001a0 1a 80 97 3d dc c9 a7 bc 42 69 ed 3d 4d c4 a4 bd
       0.0739748 -0.020481996 0.11592342 -0.08045254
0001b0 4c 2a 48 3b 59 89 96 bd 68 ab 87 bd 3a db c9 bb
       0.003054279 -0.07350416 -0.0662449 -0.006160167
0001c0 21 74 31 3d 26 ce 3d be 62 3e 34 3e b7 e6 3e 3d
       0.04332364 -0.1853567 0.17601922 0.046606746
0001d0 d5 62 d1 3d 83 b1 00 3e eb 28 bb 3d a8 90 01 3c
       0.10223929 0.12567715 0.09138664 0.007908024
0001e0 6a 38 7a 3d c2 77 cb bd 26 38 2e 3d ca af 29 3d
       0.061088957 -0.09934951 0.042534016 0.04142741
0001f0 37 0c 95 3d a3 26 45 bd b4 9c bd 3d 0e af 9e bc
       0.072777204 -0.04813255 0.092584044 -0.019370582
000200 73 ee a0 3c 1a 87 84 bc 7b d1 38 3e 4d 74 e5 bd
       0.019644951 -0.016177703 0.1804866 -0.11203823
000210 bd f2 43 3e 63 03 43 3d ee dc 59 3d 18 e6 9c bd
       0.19135566 0.04761065 0.05318921 -0.076610744
000220 5a e1 bc 3d f2 f8 a5 3d 88 2d 97 3d 10 5b 0b 3d
       0.0922267 0.08104123 0.07381731 0.03402239
000230 9e 52 0b be bb 16 0c 3d b3 89 d6 3c 89 3d 6c 3d
       -0.13605735 0.034201365 0.026188707 0.057675872
000240 e6 cc 9a 3d 42 0f a2 bd 10 d9 c2 bd 9f 96 b1 bc
       0.075586125 -0.079130664 -0.09514058 -0.021678267
000250 a3 b1 f7 3d 72 d0 f5 3c 8a bf 51 3d 18 4c 4e 3d
       0.120944284 0.030006621 0.051208057 0.050365537
000260 74 fb 93 be dd 37 c2 3c 50 d4 83 3d 06 9d 98 3d
       -0.2890278 0.023708278 0.0643698 0.07451825
000270 68 58 6e 3d f4 ee 9c bd 92 8c cc bd 13 66 ac bd
       0.05818978 -0.07662764 -0.09987749 -0.084179066
000280 9d b6 23 be 15 89 a6 3d b5 21 76 bd fe 59 0d 3e
       -0.1598763 0.08131615 -0.06009074 0.1380386
000290 a2 b8 5f 3d 59 34 c2 3d 21 ba c6 bd a2 4d e4 bc
       0.05461944 0.09482641 -0.0970347 -0.02786905
0002a0 c0 3e 31 3d 69 31 e5 3d d4 35 65 bc 56 20 18 be
       0.043272734 0.11191065 -0.013989884 -0.14856085
0002b0 cb 3b 51 3d 46 08 a5 bc 02 c3 ae bc 52 96 71 3c
       0.051082414 -0.020145547 -0.021333221 0.014745312
0002c0 59 65 65 3d 82 ad c4 bd 0b 84 91 3d b5 2e 98 bc
       0.056004856 -0.096034065 0.07105263 -0.01857696
0002d0 9a 74 49 ba ed 27 15 be b4 9c 52 bd 38 e3 3c 3c
       -0.00076849165 -0.14566012 -0.051418975 0.011528783
0002e0 4e 58 44 bc 6a 47 b1 3d fa 2d 05 3d 62 c7 a0 3d
       -0.011983944 0.08656199 0.03251455 0.07850529
0002f0 7e 27 1f 3e c7 41 8a 3e 27 31 b1 3c 10 26 3d be
       0.15542409 0.2700331 0.021629883 -0.18471551
000300 7c d3 0c 3e 0c b2 ed 3c 6f 80 09 3e 5a 74 1a 3d
       0.1375255 0.029015563 0.134279 0.037708618
000310 f4 d1 d0 bc e0 e2 bd 3d d8 c3 80 3d 35 c4 91 3d
       -0.025490738 0.092717886 0.06287354 0.07117502
000320 79 46 b3 bd 7e 26 8d bd c2 be 1f 3d a3 4d 33 bd
       -0.08753676 -0.068921074 0.03900028 -0.043775212
000330 88 68 00 bd 44 f6 b8 3d e3 03 95 3d 05 82 a6 3d
       -0.03134969 0.090313464 0.07276132 0.08130268
000340 98 ad 04 3e 9e 12 d6 bd 7f 9f 79 3d 6e a7 cb 3c
       0.12956846 -0.1045277 0.060943123 0.02486011
000350 b0 6e bf b7 c5 12 6e 3d f6 2a c6 3d b9 1c 62 3c
       -2.2820517e-05 0.05812337 0.09676163 0.013800793
000360 9e b1 58 3d 9e 6c 0a 3d 29 dd c9 bc 08 48 7a bd
       0.052903764 0.03379499 -0.02464159 -0.06110385
000370 21 0f 45 bd 9a 33 98 3c 02 df 62 bd bb 71 05 bd
       -0.04811013 0.018579293 -0.055388458 -0.032579165
000380 de 17 1e 3e 92 cb 98 bd 17 c5 7a 3d 1d 39 bb 3d
       0.15438792 -0.07460703 0.061223116 0.09141753
000390 d7 7c 0f be bc a5 81 bd 34 26 36 3d 2b 2e 97 3d
       -0.14012466 -0.063304394 0.044470027 0.07381853
0003a0 c2 cf 01 3e fb e6 44 3d 53 c4 0a bd a8 2e c8 3c
       0.1267691 0.048071843 -0.033878636 0.02443631
0003b0 5a f3 1f bc 86 9b 2c bd 86 1e a2 3d f6 48 84 3d
       -0.009762609 -0.042140506 0.07915978 0.06459229
0003c0 50 6b f5 3c 4b 4f 0c 3e 21 e9 c1 bd f0 3c ba 3d
       0.029958397 0.13702123 -0.09468294 0.09093654
0003d0 89 0f 10 3e 82 fb 49 3e 08 e0 4f 3e 2f 44 b5 bc
       0.14068426 0.19724849 0.20300305 -0.022127239
0003e0 5a f3 7a bc b8 a1 15 3e 00 88 61 3d 24 f8 6a 3d
       -0.015316809 0.14612472 0.05506134 0.05736555
0003f0 ad 50 5d bd f4 14 b1 bd d6 70 cc 3c 2a 60 8b 3d
       -0.054032017 -0.086465746 0.024956148 0.06805451

bias f4 [64]
000000 11 43 0e 3d 8e ea 1a 3d 6e 8b 81 bd 7f ea 19 bd
       0.03473193 0.037821345 -0.06325422 -0.03757715
000010 44 78 e6 bd b7 e8 d5 bc bb 6d 83 bd 17 4b 87 3b
       -0.112534076 -0.026111944 -0.06417414 0.0041288245
000020 5f fe e4 3d 33 05 e2 bd 42 4b 1f 3c 5e 8f 0b 3d
       0.1118133 -0.11036148 0.009722533 0.034072272
000030 32 55 61 3d 4d b1 b3 3d a4 36 56 3c b9 40 3f bd
       0.05501289 0.08774052 0.013074551 -0.046692584
000040 ca 1f c3 3d 8f 90 90 bb a9 a6 bc bd c1 0d b9 bc
       0.09527548 -0.004411764 -0.092114754 -0.022589566
000050 88 5f 0f 3e 36 2a de bc 74 f6 85 bb 17 a2 12 3d
       0.14001286 -0.027119737 -0.0040882174 0.035799112
000060 9e 22 49 bd 34 8c 30 3c c7 e8 81 3d e8 ff f8 bc
       -0.04910528 0.0107756145 0.06343227 -0.030395463
000070 bf 47 24 3e 7e bd 46 bd 5e 3e 4e 3d 39 ba 25 3e
       0.16042994 -0.048520558 0.050352447 0.1618432
000080 55 93 a6 bd ce 8d 16 bd cd 5c 61 3d 77 b4 99 bc
       -0.0813357 -0.03675633 0.055020142 -0.01876281
000090 48 0a cd 3d aa 13 ba bc 28 ae e1 bd c9 11 9d bd
       0.100117266 -0.022714455 -0.11019546 -0.07669408
0000a0 90 a2 2a 3d ea 85 73 3d 66 3c 44 bd a8 72 ab 3d
       0.041658938 0.059453882 -0.047909163 0.08371478
0000b0 3b ca 5a bd 71 16 83 bc af b1 7e 3d a7 d5 ee 3d
       -0.05341552 -0.016001912 0.06218117 0.11661845
0000c0 3a 87 fb 3c 38 01 ff bc b9 82 05 3d 0d 8f a7 3c
       0.03070413 -0.03112851 0.03259537 0.020453954
0000d0 7a 99 36 bc 43 ad dd bc 3b 17 d3 bc 19 e1 2a 3c
       -0.01114499 -0.027060157 -0.025767913 0.010429644
0000e0 57 84 19 be 0e ee 89 3d 63 4c f5 3c 20 72 36 3d
       -0.1499189 0.067348585 0.02994365 0.04454243
0000f0 6c 09 a2 bd 18 3f 8b bd 47 f0 bb bb 0e c9 05 be
       -0.07911953 -0.067991436 -0.0057354304 -0.13064978

weight f4 [10, 64]
000000 0a a1 dd bd d1 38 a6 3d 7d 83 00 3e 18 c9 17 3e
       -0.108217314 0.081163056 0.12550159 0.14822805
000010 a0 25 37 be f1 23 81 bd 5e 30 de 3d e1 2e 7c bd
       -0.17885447 -0.063056834 0.10849069 -0.061568145
000020 6b d7 f7 be 75 5b 8e bd eb 33 11 bd 7c 1f 38 3e
       -0.48406538 -0.06951038 -0.035449903 0.1798076
000030 6d f4 30 3c cc d8 5f be ef fe a6 3d 49 0b 97 3c
       0.010800463 -0.21860045 0.081540935 0.018437998
000040 5f 9e 68 be fb 2a 05 bf 2d 3e fa 3d 14 33 08 3c
       -0.22716664 -0.5201871 0.1221889 0.008312959
000050 12 b5 03 3e d9 d2 c0 bc 14 11 90 be 5e ce c3 3d
       0.12862042 -0.02353804 -0.2813803 0.09560846
000060 61 28 c9 3d 65 44 e3 3d 8d 33 18 3e a6 9e 97 3b
       0.09822155 0.110970296 0.14863415 0.0046270667
000070 09 66 8c be b5 ff 31 bd 01 00 93 bc e9 7e f0 bd
       -0.27421597 -0.04345675 -0.017944338 -0.11742956
000080 7c be 24 bd b3 11 98 bc d3 9e 37 be e6 b0 75 3e
       -0.040220723 -0.018563127 -0.1793168 0.23993263
000090 4f a6 3f 3d d3 c7 7d be d1 cd c6 bd 28 ba 84 be
       0.046789464 -0.24783258 -0.09707225 -0.25923276
0000a0 5b da 3b bd 12 a5 66 bd e2 c9 82 3c a1 06 d3 bc
       -0.045862537 -0.056309767 0.015965406 -0.025759997
0000b0 a3 61 84 be 49 bb a2 3d e0 23 62 3c 4f 2a 56 be
       -0.2585574 0.07945878 0.013802499 -0.20914577
0000c0 29 5d 24 be ae 7d 2f bc a3 66 7e bd 75 a6 62 3d
       -0.16051163 -0.010711117 -0.0621096 0.055334527
0000d0 d4 1e 93 bd b2 23 92 bd e4 8e 2d 3e d1 d5 ae 3d
       -0.071836144 -0.071357146 0.1694904 0.08536876
0000e0 74 f0 3e bd c8 37 97 bd 4a c6 00 3e 31 ce 81 bd
       -0.046616033 -0.07383686 0.12575641 -0.06338156
0000f0 97 8b 23 3d 6c d2 09 bc 5b 52 36 3e 07 f8 4c be
       0.039928045 -0.008411985 0.17804854 -0.2001649
000100 a7 d3 65 3e e4 3f 54 3d c7 32 06 be aa 1e 70 3e
       0.2244402 0.051818743 -0.13105308 0.23449197
000110 f4 a6 3e 3e 4f 4d 3d be b5 85 c5 3d 80 74 c9 3d
       0.18618375 -0.18486522 0.09644643 0.09836674
000120 2b 34 0b 3e bb 3a d8 bd e1 b4 c5 bd 1b 3f 14 be
       0.13594119 -0.10558077 -0.096536405 -0.14477198
000130 f8 7f c5 3d 29 47 99 bd 3d ec 73 3d 17 24 52 3e
       0.09643549 -0.07484276 0.059551466 0.2052158
000140 8e 89 de 3c b6 c9 93 be 5d c1 fd 3c 99 2e 13 bd
       0.0271652 -0.2886483 0.030975992 -0.03593311
000150 27 67 6f be a4 b3 e1 be 77 ef 04 3e 23 09 8b 3d
       -0.23379193 -0.44082367 0.12981974 0.06788852
000160 68 12 05 be 0a ca 49 bd 3c b5 ba 3d db 85 01 be
       -0.12995303 -0.049264945 0.09116599 -0.12648718
000170 13 e6 84 3d c5 88 01 3c 24 e9 fd 3d 78 8c 8c bc
       0.06489196 0.007906144 0.12397984 -0.017156824
000180 3e 7f b8 3d 3d 6a 77 3e b1 cb d4 bd 0a f8 9f 3d
       0.090086445 0.2416162 -0.103904136 0.078109816
000190 cd 38 c5 bd e3 07 20 3e 01 09 3a 3e f8 97 cf bd
       -0.096299745 0.15628009 0.18167497 -0.101364076
0001a0 10 36 92 bd f3 34 de bc f0 1a c3 bd 4d 5c 28 bd
       -0.07139218 -0.027124858 -0.09526622 -0.04110365
0001b0 c5 e0 fd 3d b4 e7 61 be d2 92 68 be a7 20 2e be
       0.12396387 -0.22061044 -0.22712258 -0.17004643
0001c0 16 5d b6 3d b6 6e 35 3d f6 99 48 3d 53 ac 68 3d
       0.089044735 0.044295035 0.048974954 0.056804966
0001d0 e4 9b 4c 3e 77 d3 b0 bd 10 12 a2 3b df b6 8e be
       0.19981343 -0.08634084 0.004946001 -0.27873895
0001e0 45 34 41 3d 48 06 82 3d 35 e6 cf bd ca 28 d6 bd
       0.04716899 0.06348854 -0.101513304 -0.10456999
0001f0 65 f6 d7 be 78 2d d6 3d eb 92 5a be 68 a0 9b be
       -0.42180172 0.10457891 -0.21345107 -0.30395818
000200 59 5b a4 be 8e 62 3d 3e 52 4a ee 3d 5a 5b 34 3e
       -0.32100943 0.18494627 0.11635269 0.17612973
000210 09 b3 8d 3d d7 6b 07 3d c2 77 24 be af a8 6e 3c
       0.06918914 0.03306183 -0.16061309 0.0145665845
000220 01 2d 62 be 6b b8 06 be b2 63 03 3e f5 c5 d0 bd
       -0.2208748 -0.13156287 0.12831 -0.10194007
000230 4e bb dd 3c d3 50 3d be 61 43 b1 3d fa 6f 06 3e
       0.027066853 -0.18487863 0.0865543 0.13128653
000240 0d 68 29 3d ae 5a 63 be 06 3c f4 3d 2e da 23 3c
       0.041358996 -0.2220256 0.11925511 0.010000749
000250 cd 4b 78 be 43 e1 32 3d 6b 98 46 3d 08 e1 ad 3d
       -0.24247666 0.043671858 0.0484852 0.08490187
000260 fd f8 1a bd f9 f4 8b bc 95 66 9a be 65 b1 70 bd
       -0.03783511 -0.017084586 -0.3015639 -0.058762927
000270 2f 94 25 bd 9b fb 9f bd a4 9d 66 bd c0 a6 92 3d
       -0.040424522 -0.07811662 -0.05630268 0.07160711
000280 01 d3 3f bd a6 f5 31 be d4 c3 15 3e 0e e8 85 bc
       -0.04683209 -0.17378864 0.14625484 -0.016346004
000290 24 6e f9 3d 11 43 60 3e 78 6a c0 3c 55 81 81 3e
       0.12179211 0.21900584 0.023488268 0.25293985
0002a0 e0 eb 01 3d f3 6a 83 bc 7c 12 3e be 38 85 3c bd
       0.03171909 -0.016042208 -0.18561739 -0.046025485
0002b0 5d b9 08 3e cb dd 3f 3d c6 9d 69 bd d3 d7 3a be
       0.1335196 0.046842378 -0.05703523 -0.18246393
0002c0 9f 1d 7a bc c2 d5 ba 3d 55 70 78 bd a0 3b ed bd
       -0.015265851 0.09122802 -0.060654003 -0.11583638
0002d0 5f 9d e8 bd 29 98 5d be 30 6f 29 be c9 d0 41 3c
       -0.11358141 -0.21640076 -0.16546321 0.011829563
0002e0 41 c1 bc 3d bd b6 c9 3c fd 06 16 bd 51 0e cf 3d
       0.09216548 0.02462327 -0.03662776 0.101101525
0002f0 81 cf d2 3d d5 3b 72 3d 7b b2 2c bd f6 45 c1 bd
       0.102934845 0.05913909 -0.0421624 -0.09437172
000300 fc 96 de bd 32 c6 0d be 19 42 e3 3d 8d 02 89 3c
       -0.10868642 -0.13845137 0.110965915 0.01672485
000310 a1 16 3b 3e cb e5 80 3d bf 7c f2 bb e5 a6 90 bd
       0.18270351 0.062938295 -0.007400125 -0.070630826
000320 59 b0 9d 3d 34 be de bb 63 b0 d8 3b 53 1d 9a bd
       0.07699651 -0.0067975763 0.006612824 -0.075251244
000330 ea 8c 1b 3d f9 16 8d be 81 72 23 3d 8f 1a d1 bd
       0.037976183 -0.2755659 0.03990412 -0.10210144
000340 c1 68 05 be 3a 3f 25 3e fc 10 8f bd 5e 26 31 be
       -0.13028242 0.161374 -0.069856614 -0.17299792
000350 c2 8d cc 3d 9c 96 20 be 00 a2 dd 3d 03 b6 ab 3d
       0.09987976 -0.15682453 0.10821915 0.08384325
000360 5d b6 52 3d 29 fb f1 3d 0f 00 bd 3d 5d 22 b1 bd
       0.051443446 0.11815483 0.09228527 -0.086491324
000370 80 be f9 3b 28 ba e5 bc d1 c7 9d 3d 0e 51 ff bd
       0.0076215863 -0.028042868 0.077041276 -0.12466632
000380 d5 9f be bd d3 6c 93 be e3 78 9a 3c d9 dd 36 be
       -0.09307829 -0.28793964 0.018856471 -0.17858066
000390 dd f0 b2 3d d8 60 2f 3e 10 0c 9e 3d 0f 69 b7 3d
       0.08737347 0.17126787 0.077171445 0.08955585
0003a0 e7 b0 ad bd 17 03 af bd e4 1a 49 be 4f fd de bc
       -0.08481007 -0.08545511 -0.19639164 -0.027220396
0003b0 a6 dc c5 bd d0 59 7e 3d 2e 9d 73 3e 3d e5 55 3d
       -0.09661226 0.06209737 0.23790428 0.05222057
0003c0 5b 50 a4 3d 76 08 24 be ab 85 ee bd 87 24 2c 3c
       0.08023139 -0.16018853 -0.11646589 0.010506756
0003d0 22 b7 12 3e 1c 91 68 be 9d 2d 25 39 ea f2 dd 3d
       0.14327672 -0.22711605 0.00015752618 0.10837348
0003e0 79 73 86 bc 26 c2 0e be 14 d7 49 be 40 ae 05 be
       -0.016412484 -0.13941249 -0.19710952 -0.13054752
0003f0 f3 0b 0a 3d e5 75 8d 3d 39 ab f8 bd 4e 20 b2 3e
       0.033702802 0.06907252 -0.12142033 0.34790272

bias f4 [10]
000000 6d 22 96 bb 2d 57 8e 3d bc dc 4c 3d d6 be d5 3d
       -0.0045817406 0.06950221 0.050015196 0.1043679
000010 cc 80 9f 3d 08 6a ea bd 32 fd 14 3e 86 03 41 3c
       0.07788238 -0.11446005 0.14549711 0.011780625
000020 23 5f 99 bc ee 49 3e 3d
       -0.018722123 0.046457224
